models/date_prev_btc_model.pkl (torch_old, 419819 bytes, 30 tensors)

weight f4 [7, 5]
00000000: b561 c4bb 42dc 8abb 3944 943a 87e6 bfba
00000010: 54f0 2539 2145 173e 540e 9cbd 8a6d 40bc
00000020: 9fa1 a3bc cdb4 963d 2e00 a03d 8915 b03b
00000030: 8c11 bcbd 089d b4bd 3158 dfbd e068 fabd
00000040: d67d f23d 0e54 c83c b78b 913d 6f41 80bd
00000050: b878 59bd b393 edbd c2b5 9f3d 49bf 1f3e
00000060: e874 4c3e d7cb 82bc 8da7 cebb 7844 d5bc
00000070: ec54 0bbc bbe9 f0bc 507d 0f3d ba8a 483c
00000080: 6145 4a3b c455 e1bb cb9d 053d
-0.005993093 -0.0042376826 0.0011311836 -0.0014640846 0.00015825155 0.14772464 -0.076199204 -0.011744866
-0.019974528 0.07358704 0.07812534 0.005373661 -0.09183034 -0.08819014 -0.10905493 -0.122270346
0.118404076 0.024454143 0.071067266 -0.062624805 -0.053093642 -0.11600437 0.077983394 0.15600313
0.19966471 -0.015966339 -0.0063065947 -0.026033625 -0.008504134 -0.029408326 0.035031617 0.012240106
0.0030864107 -0.006876679 0.032621186

weight f4 [13, 7]
00000000: 6573 923b c927 523c 353f 093c 4973 c63b
00000010: 0f1d ce3a b0fd a63b e671 e7ba 433b 113e
00000020: baf5 f13d 4a8f 34bd f719 2ebd af1e 2f3b
00000030: 3829 c73a 6a2a d23d a06a b13d eb14 823d
00000040: ed1e 16bd 6bf2 58bd d024 353d e11b 783c
00000050: 1920 353d a7ac 2d3d 0999 823d bbd8 89ba
00000060: 367f 11bd e86c 843d 5624 c6bc d65d 473d
00000070: b7da 583d 3b0a 863d 33f4 ff3c 4905 633d
00000080: 3e4e 493d 6926 62bb 9ef8 583d 68e9 9abd
00000090: 9174 44bd 82b9 803c b78f ec3c 2d9f 9f3d
000000a0: a92e 0cbd 906c 0ebd a2d8 f9bd 759b 52bd
000000b0: 4696 b2bc 82cf fb3b 4a02 56bd a58b 223c
000000c0: 868d a4bd b2a1 08be 4e38 c2bd 56f9 b5bc
000000d0: 8249 4dbc 152f 91bd 52cd f13b 352b 91bd
000000e0: 194b e2bd 4806 8abd 47f1 d13d 5e25 453d
000000f0: aec0 413d 37dc 373d 2233 7ebd f329 15be
00000100: 8e3c b9bd ca79 bf3d 3f0a af3c 7e57 1a3d
00000110: cefa a23d 8bb7 b3bd 60c7 bcbd 1538 b9bd
00000120: 1c50 4d3d 2af3 8d3d f9e9 8cbb 01ec 043e
00000130: e194 afbd 44a0 88bc e57a 07bd b6b5 ec3c
00000140: c9f0 a93d e428 68bd bffc 053d c165 acbc
00000150: e570 eb3d 9169 ee3d 8a63 15bd e13f dfbc
00000160: 36aa acbd b1f5 b1bd 5e82 173e
0.0044693225 0.012826868 0.008376886 0.0060562235 0.0015725213 0.00509616 -0.0017657846 0.14182763
0.11814447 -0.044081964 -0.04250523 0.002672117 0.0015194779 0.10261996 0.08662915 0.06351646
-0.036650587 -0.052965563 0.04422456 0.015143366 0.044220064 0.042400982 0.063768454 -0.0010516861
-0.03552171 0.06466085 -0.024187248 0.048673473 0.052942958 0.0654492 0.031244373 0.055424962
0.049146883 -0.0034507758 0.052971475 -0.0756405 -0.04796273 0.015713457 0.028877122 0.07794032
-0.034224186 -0.034771502 -0.121995226 -0.051417787 -0.021800172 0.007684649 -0.052248277 0.009920989
-0.08034806 -0.13342932 -0.094833955 -0.02221362 -0.012529733 -0.07089058 0.0073792124 -0.07088319
-0.1104948 -0.06739479 0.10251098 0.04813134 0.047302894 0.044887748 -0.062060483 -0.14566784
-0.09044753 0.09349401 0.02136719 0.037681095 0.079579934 -0.087752424 -0.09217715 -0.090439
0.050125226 0.069311455 -0.0043003527 0.12980653 -0.08573318 -0.016677983 -0.033076186 0.02889524
0.08297879 -0.05667962 0.03271174 -0.021044614 0.11496142 0.11641229 -0.03647188 -0.02725214
-0.08430903 -0.0868944 0.14795825

weight f4 [54, 15]
00000000: 268c 373b e8ae ec3a d2e6 9bbb e98d 5c3b
00000010: 1279 b53a 61df 023a f00f 0339 0456 0abc
00000020: ffd4 3dbb b33a e63a 41d6 6abb 0de1 5e3a
00000030: 521f 773c 0c20 f1bb 16b3 95bc ca1d bf3c
00000040: 4649 86bc 807f 813d 5194 1dbd 0c0a 5b3b
00000050: 8c16 f13d 6a9a 113d 00c2 a03d c446 85bd
00000060: 7147 6c3c 2a53 983d 13f4 3cbd 9990 bf39
00000070: 7118 cfba b8f7 7a3c 412a f3bb 1486 b93c
00000080: 9a5d 8f3c 0b5b 13bd 90e5 89bd 79e6 c73d
00000090: 5881 893d 1657 413d 28ab d1bb f563 c53c
000000a0: 9990 be3c ffee a4bc 7529 bebc 681d b73d
000000b0: 1f57 9c3d 538a 263d ab67 653d 5a8e 0ebc
000000c0: 7236 2cbd b603 5b3d 67d8 aebd ff55 debd
000000d0: 1eb7 abbc e7e4 3b3b 9780 d7bc fcc1 efbd
000000e0: c902 99bb 741e aebb bc2b 1b3d 57cf 0e3d
000000f0: 0217 27bd 323a ab3d dfcd 09bd 2ea2 3a3d
00000100: 76b3 a13c 8528 10bd 6011 c7bc 3d5b a4bc
00000110: ed50 6e3c b1c5 05bd 434d 0bbd f69a 1b3c
00000120: 7382 533b 3273 203d d160 b5bb f57e 7a3d
00000130: 6cfe 9f3d d8b3 e23c 8f75 8b3c 5e83 19bb
00000140: a648 aebc bd10 adbc 4f39 023d a248 a93d
00000150: 52b9 fcbc a859 02bc 22fd dbbb 4a9a e3bc
00000160: 0fe5 a13d b231 81bd 555b 543d 6847 053d
00000170: b5ee f03c d757 e73c 409f 8a3c 1ddf 173c
00000180: 97b1 353b c765 98bc 614d 313d 0484 31bd
00000190: f0ec 9dbd 2026 16bc 423b 013d ecd9 da3c
000001a0: aa85 8e3d efe7 3c3c a8af 703d 66d7 2cbd
000001b0: c9d2 21bd 5379 223d f3c2 723c f7a7 babc
000001c0: 0328 ba3c 1c40 c83c 13f7 7abc 5ddb 22bd
000001d0: 1166 4c3d 92e6 55bc 7e8c a33d 83a3 0d3d
000001e0: a777 bc3a 7599 d93b 470d 9a3d 684d 40bd
000001f0: 0413 3b3d 63a1 14bc 7650 c8bc a590 0c3d
00000200: da9e 413c 8710 7a3c 0ffb 6cbc e0e0 e4bc
00000210: 7ddf d8bb 9fc9 cc3c 6c09 163d 4cfb c1bc
00000220: 6d2d 633d e9c6 ce3c 6a08 2d3d 0609 8a3d
00000230: 38f6 193d a652 64bd 308c 14bd 630c 0bbd
00000240: 4f68 8abb 40da 943c e66a 563b 924e a93c
00000250: 0652 a6bd 62d1 0bbd c93e 1e3c b000 593c
00000260: 5bb0 723d e80e 4d3d 9408 0abd 288c aa3d
00000270: 6fbb 943b 0761 363d 663a f33c 767b 3bbc
00000280: 21d6 1c3c fd57 cfbc e8c1 67bc 54c2 e73a
00000290: fe2a 65bc 967e ffbb 8b7b e2bc 06da 023d
000002a0: e7cc b93d 4a0e 8cbd 9ebd 663d 9c69 043d
000002b0: d3c8 623d 05d1 723d 172a d5bc 92e3 243d
000002c0: 4f90 cbbc e26a 3e3a 8cfa 4c3d 107d 863c
000002d0: 8b60 8d3b 043c 69bc 9aa2 6abd cb9d 953c
000002e0: 2d8c e9bd 5353 463c 0ade 073b 44b9 143d
000002f0: 5e1c ca3c b03c efbc dd3b 57bc f18b eebd
00000300: bb93 d13c 2a3f 3a3d ab52 4c3d beff 48bd
00000310: 609f 0abb 422d bebc 1ac5 d63c a065 15bd
00000320: c424 38bc 4e77 183b 4303 9fbd c4f9 f03c
00000330: 2dfb 823c 279e 25bd 23e3 bebd db5a 553c
00000340: b43c 0d3d 5871 9a3b f99a 29bb 71fe da3c
00000350: a5c8 8dbc 0501 143d f4cc 07bd 1a3b 80bd
00000360: 666b d8bc 4646 c6ba f3da 523c a8f3 ca39
00000370: f3c3 2fbd ec2b 6fbd 2c31 0b3d 0801 e53b
00000380: 90a0 4d3a 2879 283d 6540 87bc 352c 94bd
00000390: 3010 823c cc62 113c 2453 40ba c8ce 78bc
000003a0: 6a54 11bc fcf5 b53c 485b b73c 79f5 4ebd
000003b0: 8a3d f93b 709c 9a3b fb3e 093d 1a43 63bd
000003c0: ee28 0c3c c99e af3d c96c edbc d007 213d
000003d0: e2bd 8b3c 723b 81bd f060 6fbd 7f90 44bd
000003e0: 412b 94bb fe81 813c af65 48bd dd34 1b3d
000003f0: 0358 193c e235 743c 7ba6 bdbc 07e9 713d
0.002800712 0.0018057497 -0.0047577405 0.003365392 0.0013845286 0.00049923925 0.0001249907 -0.008443359
-0.0028966067 0.0017565101 -0.0035833272 0.0008502163 0.015083151 -0.0073585566 -0.018273871 0.023329634
-0.016392361 0.06323147 -0.038471524 0.0033422736 0.117718786 0.03554765 0.078495026 -0.06507638
0.01442133 0.07437737 -0.046131205 0.00036538093 -0.0015800131 0.01531785 -0.0074208085 0.022646941
0.017500687 -0.035975497 -0.06733239 0.09760756 0.067141235 0.047202192 -0.0063985772 0.024095515
0.023262309 -0.020133493 -0.023213128 0.08941156 0.076338045 0.04065926 0.05600707 -0.008700931
-0.04204411 0.053470336 -0.08537369 -0.10856246 -0.02096134 0.0028670372 -0.026306434 -0.117069215
-0.0046695215 -0.005313689 0.037883505 0.034865703 -0.040793426 0.08360709 -0.0336436 0.045564823
0.019738894 -0.035194892 -0.024300277 -0.020063037 0.014545661 -0.032659236 -0.03400923 0.009497395
0.0032273799 0.03917236 -0.005535223 0.061156232 0.07812199 0.027673647 0.01702383 -0.0023424248
-0.021274876 -0.021126145 0.031792935 0.08265807 -0.030850086 -0.007955946 -0.0067135254 -0.027783532
0.079050176 -0.06308307 0.051844914 0.0325388 0.0294107 0.028240127 0.01692164 0.009269503
0.002772426 -0.018603219 0.043286685 -0.04333879 -0.07711208 -0.009164363 0.031550653 0.026715241
0.06959088 0.011529907 0.05876127 -0.042197607 -0.03950766 0.039666485 0.014816987 -0.02278517
0.022724157 0.024444632 -0.015317696 -0.039759982 0.049902026 -0.0130554605 0.07985781 0.034579765
0.0014378921 0.006640608 0.07522064 -0.04694882 0.04567243 -0.009071681 -0.02445243 0.03431763
0.011817658 0.0152627295 -0.014464154 -0.02793926 -0.0066184388 0.024998484 0.03663008 -0.023679398
0.055463243 0.025241332 0.042244352 0.06740002 0.037588328 -0.055742882 -0.036266506 -0.03394736
-0.0042238603 0.018170476 0.0032717525 0.020667348 -0.081211135 -0.03413523 0.009658524 0.013244793
0.059250217 0.050063044 -0.033699587 0.08327514 0.0045389454 0.044526126 0.029690932 -0.01144301
0.009572537 -0.02531051 -0.014145352 0.0017681816 -0.013987301 -0.0077970726 -0.0276468 0.031946205
0.09072285 -0.06838663 0.056333177 0.03232728 0.055367302 0.059281368 -0.026021047 0.04025609
-0.024849085 0.00072638516 0.050043628 0.016417056 0.0043144873 -0.0142355 -0.057283975 0.018263718
-0.114036895 0.012104827 0.002073171 0.036309496 0.02467173 -0.029203743 -0.013136831 -0.116477855
0.025583139 0.045470394 0.049883526 -0.04907202 -0.0021152124 -0.02321494 0.026217032 -0.03647387
-0.011239234 0.002326447 -0.07764294 0.029415973 0.01598891 -0.04043403 -0.09320667 0.01302215
0.03448172 0.0047132187 -0.0025879724 0.026732655 -0.017307589 0.036133785 -0.033154443 -0.06261273
-0.026418399 -0.0015127144 0.012869584 0.0003870998 -0.04291148 -0.058391497 0.03398244 0.0069886483
0.0007844055 0.04113117 -0.016510198 -0.07234994 0.01587686 0.008873653 -0.00073366077 -0.015186019
-0.008870224 0.022212021 0.022382393 -0.05052707 0.007606213 0.004718356 0.03350733 -0.055483915
0.00855468 0.08575208 -0.028982537 0.03931409 0.017058317 -0.063101664 -0.058442056 -0.047989365
-0.004521758 0.015809055 -0.048925098 0.03789221 0.009359363 0.014905425 -0.023150673 0.059060123

weight f4 [32, 11]
00000000: 0825 903b 0cf7 bd38 3464 02bc 7125 883b
00000010: 42bb 753c 1918 6a3c f3a3 2b3c 4d23 0abc
00000020: 1017 4c3c c316 d33b 0e49 6d3b 4b9a 363c
00000030: a9bd efbc 877a 05bd 5872 ca3b 6471 e23b
00000040: 1f02 f6bc 5909 a2bc be31 eb3b 37a2 823c
00000050: 7d6e a53c 40a5 a53d ceb0 313d 19ee 2ebd
00000060: f1c5 dc3b 2698 3d3d fae4 8ebc 4888 90bd
00000070: 27fe 0ebd 083e 56bc 3a5c 0a3c 9603 2e3b
00000080: 44f4 22bc 0e72 f83a 6200 50bd 47c3 dfbc
00000090: 00ba b5bb ac0f c4bc 612b b63c 6f51 92bb
000000a0: 1f62 34bc 0297 d63b be7c a73c 8bd0 0fbc
000000b0: 137f 313d 65e9 eb3c bbd8 9fbc b646 8ebc
000000c0: 8294 503c 7c68 68bb 9719 afbc 9da0 94bb
000000d0: e0b4 883c 9143 583b dd12 c33c 9313 12bd
000000e0: 8cfb acbd d3d6 2bbd 47ca 3b3d 13c2 ce3a
000000f0: 02b7 5fbd af57 243d d421 3bbd f7b7 713d
00000100: f504 a3bc cf6d 9a3d ce96 32bc d316 883c
00000110: d308 0fbd f6b6 593d 0bec fe3a 22d4 a53b
00000120: 4dc2 08bc 7dab 1abd ca5c 09bd 185d 0b3c
00000130: a2a7 b7bc 3eda ca3c f1d6 1cbd e1b9 8fbc
00000140: 26af 8e3b 1d38 0d3d 8a7d 553d 54e1 e9bc
00000150: 6b4b 95bd b3ce f33a 47bd 91ba 8d0a 1e3d
00000160: 3070 993c 6a84 49bc eb7a 64bd 498b 953c
00000170: 56cc bdbc 5375 683c 7160 8dbc 3942 013d
00000180: ab59 103d 5446 a4ba 0493 16bb d3ae fe3b
00000190: f21e 683c 6043 ccbc afbc 7c3c b39d d739
000001a0: 93fb 2fbc c358 d93a 4e43 debc dd56 413c
000001b0: c179 f43c d9bf 153d 94b8 423b 76d8 183c
000001c0: 909f 40bb 1609 54bd ce71 2cbd 7581 72bd
000001d0: 70e1 733b 9117 25bc 8d02 14bc d8d6 a43d
000001e0: 8810 ccbc a855 d53c dc4f 44bd 6698 d7ba
000001f0: d831 27bc 5183 7abc df56 463d 2b98 cabc
00000200: 5942 c1bc 6817 a73a 2781 e63c 84a7 c03b
00000210: 6f14 3dbc 82ed 833b d440 31bd 4844 cd3c
00000220: 44a3 803d d31c 4c3d 358a 8c3c 8c5e b5bc
00000230: 55d5 debb 8080 d7bc d3ce 433d 3c5b a9bb
00000240: 46db c9bb e912 15bb 4df1 3c3d 9fde adbb
00000250: 5344 c2bc 9540 e13c dc29 27bc 858b 5c3d
00000260: 10ea 473b 3664 e93a 5e91 6d3d 97cc 4dbb
00000270: 1af8 e93c 8044 08bd ff7a e7bb 04ee 37bd
00000280: 092d 40bd 8385 833d 626f 9a3c 4bee aabc
00000290: abf1 f4bc 7d54 5e3c 8ade 0ebd 73b6 e8bb
000002a0: 5d5a 243d 307e abbc f891 1ebc 7aa6 c1bc
000002b0: 4d84 ec3b 86c2 b3bc ec1d 5f3c 5fd4 95bc
000002c0: e200 85bc f9e0 253d fa2d 163b d3bf 223d
000002d0: de06 0b3d deed 0d3d a43a 3d3c 1dec af3b
000002e0: 3136 153d ce93 ebba 9662 553c b3dd 2abc
000002f0: 7994 2a3b f372 263d d3dc 22bb 91e0 403c
00000300: e575 0cbb 617f fbbc 49a2 0dbd d440 c13b
00000310: b5a4 f0bc caa3 513d c76e 5dbc 7aef 923c
00000320: 22b9 473c faa2 0b3b c84c 003d bb47 17bd
00000330: 631a 13bd c461 fb3b 78fe bc3b 811d 953c
00000340: 35d5 a6bc 86cf 083d a4af b0bc 7ccb a33c
00000350: 355e 99b9 d08f b53c a257 833c 3cfe d3bc
00000360: 56f8 123d 87bd c9bc d9f4 8b3b 4a1b 7cbc
00000370: 5579 eeba 5091 9f3b b369 d33b b643 703b
00000380: 28cc 07ba 7b53 26bd 7092 113d 287d 873c
00000390: ef24 0fbd 8d51 5bbd 057d 483d 261a 8ebc
000003a0: 3cf4 05bc 5b92 0fbd 551f 58bb f19f 413d
000003b0: 1956 51bd 1ea4 04bc a4f3 273d 5cb0 ee3b
000003c0: 30e6 7c3c c188 0d3c f915 64bd b39e 733d
000003d0: 7b55 32bd 0e5f 133c 7929 d9ba b510 1dbc
000003e0: 39de f2bc 1bad 45bc c194 e53c 7d37 cc3c
000003f0: b538 a03c 09ce 453d 42f1 bdbc 2326 863d
0.0043989457 9.058238e-05 -0.007958461 0.004154854 0.014998259 0.014287972 0.0104761 -0.008431268
0.01245667 0.0064419224 0.0036206874 0.011145185 -0.029265242 -0.032587554 0.0061781816 0.00691049
-0.030030308 -0.019779848 0.0071775606 0.01594649 0.020194286 0.080881596 0.043381505 -0.042707536
0.0067374636 0.04628768 -0.017443169 -0.070572436 -0.034910347 -0.013076313 0.00844484 0.002655243
-0.009945933 0.0018954889 -0.050781615 -0.027314795 -0.0055458546 -0.023933254 0.022237482 -0.004465274
-0.011009722 0.0065487633 0.020445224 -0.008777748 0.043334078 0.028797815 -0.019512525 -0.017367702
0.0127307195 -0.0035462668 -0.021374507 -0.004535748 0.01668781 0.0032999257 0.023812706 -0.0356632
-0.08446416 -0.04195292 0.045847204 0.0015774391 -0.05461789 0.040122684 -0.045686558 0.059013333
-0.019899825 0.075404756 -0.010900212 0.016612446 -0.034920525 0.053153 0.0019449008 0.0050606886
-0.008347106 -0.0377612 -0.033535756 0.008506082 -0.0224188 0.02476227 -0.03829092 -0.017544689
0.0043543754 0.034477342 0.052121677 -0.028549828 -0.072897755 0.001860103 -0.0011119031 0.03858428
0.018730253 -0.012299636 -0.055781286 0.018254893 -0.023168724 0.0141881285 -0.0172579 0.031557295
0.035241764 -0.0012533166 -0.0022975812 0.0077723055 0.014167534 -0.02493447 0.015425845 0.0004112549
-0.010741132 0.0016582239 -0.027131703 0.011800495 0.029843213 0.036559913 0.0029712068 0.009328952
-0.0029391982 -0.051766478 -0.04210072 -0.05920549 0.0037213229 -0.010076419 -0.009033811 0.08048791
-0.024910226 0.02604182 -0.047927722 -0.0016448617 -0.010204755 -0.015290097 0.04842269 -0.024730762
-0.023591207 0.0012748064 0.028137757 0.0058793444 -0.011540516 0.004026116 -0.043274716 0.025056973
0.062811404 0.049832176 0.017155746 -0.02213981 -0.0068003335 -0.02630639 0.047804665 -0.0051683467
-0.0061601726 -0.0022746867 0.04612856 -0.0053060795 -0.02371422 0.027496615 -0.010202851 0.053843994
0.0030504502 0.0017806354 0.05799996 -0.0031402463 0.028560687 -0.03326845 -0.007064223 -0.044904724
-0.04691795 0.0642195 0.01885194 -0.02086558 -0.029900393 0.013569948 -0.0348802 -0.0071018278
0.04012524 -0.020934194 -0.009678356 -0.023638953 0.00721792 -0.021943342 0.013617974 -0.018289743
-0.016235773 0.040497754 0.0022915588 0.03973372 0.033942096 0.034650676 0.011549626 0.005368723
0.036428634 -0.0017973126 0.013023993 -0.010428834 0.0026028438 0.040636968 -0.002485086 0.011772291
-0.0021432575 -0.030700387 -0.034578595 0.0058976207 -0.029375413 0.051181592 -0.013515181 0.017936457
0.012190135 0.0021306858 0.031323224 -0.036933642 -0.035913836 0.0076715667 0.0057676397 0.018202545
-0.020365337 0.033401035 -0.021568127 0.01999449 -0.00029252624 0.022163302 0.016032998 -0.025878064
0.035881363 -0.024626506 0.0042711315 -0.015387366 -0.0018194119 0.0048696175 0.0064518093 0.0036661453
-0.0005180263 -0.040606957 0.035540044 0.016539171 -0.034947332 -0.05354457 0.048947353 -0.017346453
-0.008175906 -0.035051685 -0.003297766 0.047271673 -0.0511075 -0.008095769 0.04100384 0.0072842073
0.01543574 0.008638562 -0.055685017 0.05947752 -0.04353855 0.008994831 -0.0016568146 -0.009586503
-0.02964698 -0.012065197 0.028025033 0.024928803 0.01955829 0.048292194 -0.02318633 0.06550243

weight f4 [8, 5]
00000000: d664 133b 29a8 05bc 079f 4cbc 00f5 0139
00000010: 83fc 12bc 8be3 0d3d 33b8 223d b4ca 833c
00000020: 1440 94bc dcd0 d03c 4c77 b2bb 49a7 0e3d
00000030: 4de8 ac3b 2a3d 753b 1d2b cebc 9ec5 973c
00000040: 9840 033c fe87 893a 5fe0 e93c eca4 58bc
00000050: 7482 bb3b e63a 063c 1939 65bc fbd4 f93b
00000060: 65e7 373d e68f 113c fca9 2e3c cd4c 05bd
00000070: 9b74 4cbc 8f49 5c3d 3b98 113d 87ac c13c
00000080: a51d 813c 01a4 e0bb 6895 fc3c 5afa 47bc
00000090: 085c 14bc 54dd e8bb 5eb5 bc3b d8c0 883c
0.0022490523 -0.008157768 -0.012489087 0.00012393668 -0.008971336 0.03464083 0.039726447 0.016087867
-0.018096961 0.025490217 -0.00544635 0.034827504 0.005276716 0.003742049 -0.025167042 0.018526848
0.008011006 0.0010492799 0.028549371 -0.013222914 0.0057223383 0.008192753 -0.013990664 0.007624266
0.04489841 0.008884406 0.010660645 -0.032543946 -0.012478973 0.05378109 0.03554557 0.023641838
0.015761206 -0.0068554883 0.030832961 -0.012205685 -0.009055145 -0.0071064625 0.0057589253 0.016693518

weight f4 [367, 44]
00000000: 48b9 8f3a f7ce 10bc dd14 35bc b99b 78bb
00000010: 613a 583b 2147 043c 1461 0fbc d565 043c
00000020: 434a b13b ec7d d0b9 3f9c 3ebc 9be9 f1ba
00000030: 0628 d3ba 4e48 74bc 8ffe 90bb 05f3 bcbb
00000040: 11e1 5c3c 76b8 e0bb 0037 a1ba 684f c8bb
00000050: 2928 cfbb 8735 df39 94c3 61bc f786 703c
00000060: d20d 66bc 2477 76bb f1af b4bb 9d43 aabb
00000070: c845 98bb 66e1 74bc 9db4 41b7 97dc 0d3a
00000080: 06da 0e3c 691d 89bb b289 183b a9bb 033c
00000090: 57fe 593c 5f29 dd3b e0c9 51bc c87a e4bb
000000a0: ba04 03b9 6b9f 253b acd6 773b e1b7 343c
000000b0: 8817 093e 2ef6 adbb 7843 a1bc 59e4 5b3c
000000c0: 0c15 8bbd 6c6f 813d 9b85 c6bc 7fcd a5bc
000000d0: 40e4 bcba dcac a23d eb14 9abd 0d25 f9bb
000000e0: 7a96 07be b9a8 e93d f65a d23c da59 67bc
000000f0: a2cd ee3b 58ee 35bc 2db3 033d bfdf 723c
00000100: 7ae2 a63d 7ee8 63bc 8027 fc3c 72d8 f7bc
00000110: 02c2 133d faff 5cbd 19ac 023d d876 eb3c
00000120: 57e3 70bd 955b 3f3b 232e 2dbc ffd8 f23b
00000130: 0540 9bbd 59a6 1cbd b525 82bd 8dc2 34bd
00000140: d796 2c3d 83e8 893d f5d8 b53c 8740 64bd
00000150: 22c6 f2bc a70f d93d c3cd e8bd 91d9 923b
00000160: dc1b 823d 96ab 783c 0d3c 69bc bc3f 4abd
00000170: a719 c3bc 725a 9f3d bec1 e13d 2ad4 af3c
00000180: 74a9 a43d adaf ba3d 9549 61bd 8ce6 663d
00000190: 25a8 4fbd 5bda 71bc f7b9 403d 3de7 973c
000001a0: 8a18 ea3c 87ad 943d 8af5 edbc e20d b2bd
000001b0: 519f 8cbc 7d40 553a 8557 9f3c ea34 64bd
000001c0: 9863 503d fbdb f53c ae6d a53c 7ae1 b5bb
000001d0: 3cde 123d 1c86 82bb 42b1 9f3d 6baa 8c3d
000001e0: 9f43 c0bc 02fc 63bd 06f0 bdbd 377d 7a3c
000001f0: bebe db3a 28ac 13bc 3c5d fd3b 3e03 9dbd
00000200: 6b69 d63c 3d8e 1dbd a438 6dbd d773 5e3d
00000210: 5542 283c a6d0 13b8 670c c0bc aa0a 0cbc
00000220: 2dc9 8bbd 7a1d 3a3d db68 ed3d 6537 15bd
00000230: 3540 8bbc 83d2 a53b 4a67 95bc 2f1c 9c3c
00000240: 9dbc 84bd 2ae4 6a3d 1e3f cc3b ecde 2c3c
00000250: 3df4 3a3b 7ff2 90bc 8021 84bd 8971 a2bd
00000260: 2f03 85bc ca69 663d c2fd d83b f660 593c
00000270: 9ea3 91bd 7c94 2ebd 007f 3abd b3d8 c2bd
00000280: 80e4 4f3d 0221 b6bc 927a e7bd b381 3f3d
00000290: d02f 553c e910 95bc 8f8e 41bb de94 8aba
000002a0: 824c 343d 0304 733d 1f35 833d 20c8 ed3b
000002b0: 615b 093d 709e debd 9731 8fbd c3b0 7b3d
000002c0: e800 0f3e c641 81bd b8f8 983c 34fe bfbd
000002d0: 3746 0e3b 9492 d83d 7048 16bd 1704 523d
000002e0: 310c a73d c545 b8bc 8aba 70bc 939f ca3d
000002f0: 50d4 adbd 8d31 8e3d 32ba 62bc d8b0 59bd
00000300: 9a2c 83bc 9c4c ed3d eabb 38bd 99fb 633d
00000310: 3989 b53c ad6f 0a3d 152d 9a3d 544e 24bb
00000320: f49f e7bc 7f7a afbd e095 3bbd 3a13 3b3c
00000330: 155c 83bd ab01 023e 6e51 783d bbd3 bbbb
00000340: cecd 14bc d8c3 16be addf bfbd 2fc7 a6bd
00000350: c37e c13d f92d 703d 0e77 dbba c1b2 e63c
00000360: 8dad e73c d903 e33d 2401 a2bd 6f47 ed3c
00000370: 9b59 bf3c b47f debb ce6b 85bd b41c 523c
00000380: b4c8 f2bd 28f5 5dbc 6d7a 363d 3759 823c
00000390: 017a 25bd 891c b93d c1c8 f23c 03be 06bd
000003a0: 2119 c5bc a85c 0e3c 3239 863d 2b8c 473d
000003b0: 2356 79bc 0942 49bc 5e25 483d 35c9 05bc
000003c0: b492 983d 65a4 27bd b108 aa3d 4158 0dbe
000003d0: bc62 c23c 72a4 aebc eff4 973c f86a b7bd
000003e0: e6c0 a5bc 5a9f c0bc 5b24 33bd 60e5 773d
000003f0: 5ad8 9d3b b978 8dbd 83e1 d33c 8ab1 793b
0.0010965252 -0.008838407 -0.0110523375 -0.0037934615 0.003299378 0.008073599 -0.008751173 0.008080919
0.005410464 -0.0003976667 -0.011633932 -0.0018456461 -0.001610995 -0.014909817 -0.004424877 -0.005766275
0.013481394 -0.006857927 -0.0012299716 -0.0061129816 -0.006321926 0.00042573755 -0.01377954 0.014680616
-0.014041381 -0.0037607634 -0.005514138 -0.0051960484 -0.0046469904 -0.014946317 -1.1545749e-05 0.00054115936
0.008718973 -0.004184414 0.0023275432 0.008040347 0.013305268 0.0067493166 -0.012804478 -0.0069726445
-0.00012494894 0.0025272022 0.0037817163 0.011030168 0.13387883 -0.005308888 -0.019685492 0.013421142
-0.06791124 0.0632008 -0.02423363 -0.02023959 -0.0014411286 0.079431266 -0.07523521 -0.0076032938
-0.13240996 0.114091344 0.02567814 -0.014120543 0.007287697 -0.011104189 0.032153297 0.014823853
0.08148666 -0.013910411 0.030780554 -0.030254576 0.036073692 -0.053955056 0.031902406 0.028743193
-0.05881056 0.0029198874 -0.010570082 0.007411122 -0.0758057 -0.03824458 -0.06354848 -0.04413085
0.04213604 0.06733801 0.02219818 -0.0557256 -0.029635493 0.105986886 -0.11367371 0.0044815023
0.0635297 0.015177628 -0.014235509 -0.049377188 -0.023815943 0.07780923 0.110232815 0.021463472
0.08040133 0.09115539 -0.055001814 0.05637221 -0.050697464 -0.014761533 0.04705235 0.01854288
0.028576154 0.0725966 -0.029047746 -0.08694054 -0.017165812 0.00081349147 0.019450912 -0.055714525
0.05087623 0.030012121 0.0201939 -0.0055505605 0.03585647 -0.0039832722 0.07797481 0.06868442
-0.023469744 -0.055660255 -0.092742965 0.015288643 0.001676522 -0.009013213 0.0077320617 -0.07666634
0.026173314 -0.038465727 -0.057915345 0.054309692 0.010269721 -3.524185e-05 -0.023443414 -0.008547464
-0.068254806 0.045438267 0.11592265 -0.03642978 -0.01699839 0.0050604953 -0.018237729 0.019056408
-0.06481288 0.0573465 0.00623311 0.010551196 0.0028526925 -0.017693756 -0.06451702 -0.07931811
-0.01623687 0.056253232 0.006622047 0.013267746 -0.071112856 -0.042622074 -0.045531273 -0.09513988
0.050755024 -0.022232536 -0.11302675 0.04675455 0.013011888 -0.01819654 -0.0029534434 -0.001057293
0.044018276 0.059329998 0.064066164 0.007256523 0.03353441 -0.10870063 -0.069918804 0.06144787
0.1396519 -0.063113734 0.018673286 -0.09374657 0.0021709332 0.105748326 -0.036690176 0.05127343
0.08156622 -0.022494206 -0.014692912 0.098937176 -0.08487761 0.06943045 -0.013838338 -0.053147167
-0.016012479 0.11586878 -0.045101084 0.055659864 0.02216016 0.03379791 0.0752813 -0.0025071101
-0.028274514 -0.08568286 -0.04579723 0.011418158 -0.06414048 0.12695949 0.060624532 -0.0057320273
-0.009082271 -0.14723146 -0.09368835 -0.0814346 0.09448006 0.058637593 -0.0016743855 0.028161408
0.028280998 0.11084718 -0.07910374 0.028964726 0.023358157 -0.0067901257 -0.06514703 0.012824226
-0.11854687 -0.013547219 0.044550348 0.015911682 -0.040399555 0.09038646 0.029636743 -0.032896053
-0.024059834 0.008689083 0.06553878 0.04871766 -0.0152182905 -0.01228381 0.04886376 -0.008165647
0.074498564 -0.040928263 0.08302439 -0.13803197 0.02372872 -0.021318648 0.01854941 -0.089559495
-0.020233583 -0.023513485 -0.043735843 0.060521483 0.004817051 -0.06907792 0.025864368 0.0038100206

weight f4 [3, 3]
00000000: 5ed5 dabb 5f8e c5bb a460 e23b 908e faba
00000010: dbfe c2bc ec83 acbc 74b7 9bbb 19bf f4bc
00000020: c607 893b
-0.0066782674 -0.006028935 0.006908493 -0.0019115973 -0.023803165 -0.021058999 -0.004752094 -0.029876279
0.004181835

weight f4 [3, 3]
00000000: 838b d5ba 7de4 443c e744 eb3a b5a7 f6bc
00000010: 9dfc 3fbb af8b fabc 642a fbbc c04f 2db9
00000020: 6ea1 e5bc
-0.0016292188 0.0120173665 0.0017949612 -0.030109266 -0.0029294856 -0.030584184 -0.030659862 -0.00016528275
-0.028031077

weight f4 [3, 3]
00000000: 7107 36bc e09e b13b 4ad4 93bb ccfc 5cbd
00000010: e4dd 9f3c ff67 9c3c 72a4 c6bc 83dc 953b
00000020: a1da 60bc
-0.011110173 0.0054205507 -0.004511391 -0.053952023 0.019514985 0.019092558 -0.024248336 0.004573406
-0.013724

weight f4 [3, 3]
00000000: e6fa 573b 5f21 66bb 27af ad39 a1ed 913d
00000010: 279a fcbc c3fb 89bc 3e6f 03bc bcaf 1bbc
00000020: 2a95 73bc
0.0032955944 -0.0035115106 0.0003312763 0.07125402 -0.030835224 -0.016843682 -0.008022128 -0.009502348
-0.014867106

weight f4 [3, 3]
00000000: 8317 653c 2de1 a9bb ff01 59bc d400 8bbb
00000010: c44d 623d 3918 05bc d0b5 3936 f134 2d3d
00000020: 8708 2f3d
0.013982656 -0.0051843137 -0.013245105 -0.004242042 0.055249944 -0.008123451 2.7672977e-06 0.042286817
0.04273274

weight f4 [3, 3]
00000000: 2e8c 81bc ac89 b33b 2329 3c3c cc07 17bc
00000010: 9ae7 a93b 44cc 3abc e8ea 65bd a6df c2bb
00000020: 33a6 b0bb
-0.015813913 0.0054790583 0.011484417 -0.0092181675 0.0051850798 -0.01140124 -0.056132227 -0.005947071
-0.0053909062

weight f4 [3, 3]
00000000: 5c9d f7bb 4b99 e7bb 0087 43ba 66f3 dbb9
00000010: 09fd b43c bf7a bc3c 8710 4ebe bd16 623c
00000020: 933b 53bd
-0.0075566005 -0.0070678345 -0.0007458776 -0.0004195228 0.022093313 0.023007749 -0.20123492 0.013799367
-0.051570486

weight f4 [2]
00000000: cfe7 863f 7cc3 973f
1.0539492 1.1856532

bias f4 [2]
00000000: 5a4d 3ebd cf44 5f3c
-0.046460487 0.013627245

running_mean f4 [2]
00000000: 5ee2 25bc 0da8 69ba
-0.010124771 -0.0008913286

running_var f4 [2]
00000000: 777d 7f3f 5016 7f3f
0.9980082 0.9964342

weight f4 [300, 110]
00000000: 322c 40be ace0 fc3b 3371 293e be50 4d3e
00000010: b9b6 e63d abaa 773c 537c e13d 07ce 183d
00000020: 411a 063d 5fe7 78bd f755 70be 8903 0a3e
00000030: 02a8 b23c a3ab 893c 41b3 913d 72ff 1bbe
00000040: 3e75 c53c b3a7 823d 3a57 35bd 05c1 4f3d
00000050: cdb9 72bd 5640 ed3c 6b3d 543d b029 063e
00000060: 412f acbd 09a5 bdbb f4ee 32bb f55f 5cbc
00000070: 392d 2abe c3d4 81bd effb 713c dbc1 b13d
00000080: 5c7d e73d 240d c6bd d9f7 e13d 1540 5b3d
00000090: 5b44 30bb 168c b83d 9791 cb3b 2037 953c
000000a0: 0b88 053e cdf0 e7bd b94a d33d fa92 28bd
000000b0: 185c 1bbd 59fc 26bd 0664 07bd 95c8 b0bd
000000c0: 3c28 4f3c 4637 163e 7aea d5bd 09f4 92bb
000000d0: 3ffc 533d 6c98 833b cb06 ff3c 1340 a2bb
000000e0: 0454 ccbb dfcc 2c3d 9221 523d e5b4 56bd
000000f0: cc04 64bc 0b94 8abd e24f 0dbd 3d18 2e3d
00000100: 7d4a f1bc 705f 303d d92b ccbd b6e8 983d
00000110: 69b7 373d 6399 863c cd60 d4bd 008b ba3a
00000120: 50e0 b43c d9f9 c2bc c576 c4bc 6a6e bf3d
00000130: c8ad 1ebd 10aa cd3d 529a 5a3c f0d1 653d
00000140: 1a0c 6f3a 7e06 043d 6abd 8b3d 3747 3abc
00000150: 1cf5 f2bc 474a cd3c 760e 903d 207b 943c
00000160: 3fb3 cabc 9e70 87bc 60ab 7abe 332d 02bd
00000170: 70b2 58be 624f 2ebe 0762 9f3d 1a94 443c
00000180: 1dfd 3f3e 8140 41be 0307 70bd 2fc5 30be
00000190: f8dd 103e 5937 5fbd 180b 0dbe 8905 843c
000001a0: 64ee 84bc 984e 08bc 802e a23d f912 e63c
000001b0: c706 803d cd9a 513d 76d6 033d 86d3 87bd
000001c0: ece1 89bd bd9b a9bb f8b6 91bd a44c 003e
000001d0: 1df2 fe3d c3a8 013d f23e 253d 7ae8 efbd
000001e0: 7ace b9bc 2083 e83c bebd b53b c246 8f3c
000001f0: 2e4c 1b3c 1bec d0bd a266 03be a3f7 88bc
00000200: d3bc 943d 76ad 22bd 94dc df3b 031e f93d
00000210: 1872 a53d e329 d2bd d58b 8fbc 50bd 593d
00000220: f9d9 863c ffcd 83bc fc42 c5bd 19a2 a7bd
00000230: ea1c 55bc 68dd 05be cccb e6bc 7031 ae3d
00000240: 610a 263c b99e 52bd 7f98 a5bc 5865 c8bb
00000250: 0b73 a7bc 96e3 b53b f7d4 d1bc 6f0c 2cbd
00000260: 47c7 f7bd e249 4bbd 824f febc 0816 103d
00000270: ee92 3dbd 0fde 213d 7393 a03d b55a de3c
00000280: 2d0f 0b3e d62d 703d dc6c ac3d f60e de3d
00000290: 52cb 9abd 67cf d4bd 9e37 a8bc d062 c9bc
000002a0: 94a8 a9bc 1098 0f3d d12f e63d e0ba 8fbd
000002b0: f7a4 2ebd a0e2 61bd 9aa7 833d 13c3 76bd
000002c0: f241 573d 50b0 293d 3243 b43d 612c 503d
000002d0: 4370 4ebd d6f9 7f3d d367 56bb 6ee7 a6bc
000002e0: b164 a53d eb3c 44bd 3bd5 adbd 58ae 253d
000002f0: 3b22 33bd e2f7 5fbb b400 8abd 466d de3c
00000300: 127c 083d 4414 bcbb a3ae 903c af9b 603d
00000310: f9b7 b03d 2705 643d 188e c83d 73b5 68bd
00000320: 023e 0e3e ea5d 76bb cee0 27bd 36cc 083e
00000330: 055b 1fbd 3279 113d 2dc7 2a3b 1907 be3d
00000340: 42d1 2fbc ba14 823d 16de 793d c1f2 963d
00000350: b069 d63b 7fb2 403d 56de fb3d c609 a0bc
00000360: 7b5b 683c 9b78 ba3c 5e3a d03d 2075 af3d
00000370: 835c 083d d571 a9be abcb e63d 839b e73d
00000380: bb57 903e 40c3 013c a87c 823d 282a a73c
00000390: c534 2cbc 5916 ebbc ec64 2ebe 9e5f 543b
000003a0: 7698 9a3d 1ad3 9bbd fb2e 813c 8183 cdbc
000003b0: a791 93bc 1274 37bd 9878 09be 3ede 993d
000003c0: a992 313e a960 15bd dcb1 453d 9419 8e3d
000003d0: 9364 b4bd 4e60 e0bd 22a5 55be 56e1 083b
000003e0: 4f00 46bd 67a4 57bd ed2b 99bd 993e f43c
000003f0: 56b5 dfbd d2a8 30be 43ad 9cbd b41d 163d
-0.18766859 0.0077172127 0.16547088 0.20050332 0.1126532 0.015116374 0.11010041 0.037305858
0.03273988 -0.060767528 -0.23470293 0.13477911 0.021808628 0.016805476 0.07114268 -0.15234163
0.024103757 0.06379642 -0.04427264 0.050721187 -0.059259225 0.028961342 0.051816385 0.1310184
-0.084074505 -0.005787496 -0.0027303072 -0.013450612 -0.16618814 -0.06339409 0.014769538 0.08679553
0.11303207 -0.09670475 0.11033601 0.05352791 -0.0026896212 0.09011094 0.006212424 0.018214762
0.13040178 -0.11325226 0.103169866 -0.041155793 -0.037929624 -0.040768 -0.033054374 -0.08632008
0.01264387 0.14669523 -0.104451135 -0.0044846577 0.051754232 0.004015973 0.031131169 -0.004951486
-0.0062356014 0.042187568 0.051301546 -0.05241861 -0.013917159 -0.06766518 -0.03450001 0.042503584
-0.029454464 0.043059766 -0.09969301 0.07466261 0.044852648 0.016430562 -0.10370026 0.0014232099
0.022079617 -0.023800777 -0.023982415 0.09347232 -0.03873995 0.100422025 0.013342457 0.056108415
0.000911893 0.032232754 0.06823237 -0.011369518 -0.029657893 0.025059832 0.07034008 0.018125117
-0.024743674 -0.016533192 -0.24479437 -0.031781387 -0.21161819 -0.1702247 0.07782369 0.011998201
0.18748899 -0.18872263 -0.058600437 -0.1726272 0.14147174 -0.054496143 -0.13773763 0.01611592
-0.016226955 -0.008319519 0.079190254 0.028085219 0.06251293 0.05117302 0.032186948 -0.06632142
-0.06732544 -0.005176036 -0.07114977 0.12529236 0.12448523 0.031655084 0.040343232 -0.11714263
-0.022681464 0.028382838 0.0055463007 0.017489795 0.009478612 -0.102012835 -0.1283212 -0.016719645
0.07262578 -0.039716206 0.006831715 0.121639274 0.08078402 -0.102618955 -0.017522732 0.053159058
0.01646136 -0.016089438 -0.09631917 -0.081852145 -0.013007382 -0.13072741 -0.02817335 0.08505523
0.01013431 -0.0514209 -0.020214317 -0.0061155967 -0.020440599 0.005550812 -0.025614245 -0.042004045
-0.12098556 -0.049631007 -0.031043772 0.03517726 -0.0462827 0.039518412 0.07840624 0.027142862
0.13580008 0.058637463 0.08419201 0.10842697 -0.075583115 -0.10391121 -0.020534333 -0.02458325
-0.020710267 0.035057127 0.11239589 -0.070180655 -0.04263779 -0.055147767 0.06428452 -0.06024463
0.052553125 0.04142791 0.08801879 0.050823573 -0.05040003 0.06249412 -0.0032715693 -0.020374026
0.08075846 -0.04790966 -0.08487936 0.04044947 -0.043733817 -0.003417485 -0.06738415 0.027151715
0.033321448 -0.0057397205 0.017661398 0.05483597 0.0862884 0.055668976 0.09792727 -0.05681367
0.13890842 -0.0037592598 -0.040985875 0.1335915 -0.038905162 0.03551597 0.002605866 0.092786975
-0.010731043 0.063516095 0.061002813 0.073705204 0.0065433607 0.047045227 0.122982666 -0.01953591
0.014181967 0.022762587 0.10167383 0.08567262 0.03329135 -0.3309466 0.11269315 0.113089584
0.28191933 0.007920086 0.063714325 0.020405844 -0.010510628 -0.02869718 -0.17030686 0.0032405625
0.07548611 -0.07608624 0.015769472 -0.02508712 -0.018013788 -0.044788428 -0.13424909 0.075130925
0.17341103 -0.036469135 0.048265323 0.069384724 -0.088082455 -0.10955869 -0.20863774 0.0020886264
-0.048340138 -0.05264702 -0.07479081 0.029815005 -0.10923259 -0.172519 -0.076502346 0.03664942

bias f4 [300]
00000000: f874 1e3e e924 e83c 8742 643d 932d 9539
00000010: 7726 92bd 71bb 61be 35a3 b7bd b977 9c3b
00000020: 4bfc 053d 0903 0b3d 8c4d 0abd 8175 3c3e
00000030: ad6c 103e 8924 77bd 4dcb bd3b 41cd 063d
00000040: 0d7d 71bc 7923 c33d 4132 153e c8d6 4dbc
00000050: 207b 9cbc a62a 85bd 9353 9e3d 39cb cfbc
00000060: da3c 27bd 4b83 a43b e4be 233e fdbf 103d
00000070: c906 cf3c 7004 1b3e e77b fd3c 6de6 53bd
00000080: ab10 2ebc 0f55 fd3d 803a ccbc 1d76 a2bc
00000090: 37e6 72bc 47f2 f93c 634a 40bd 54a6 16bd
000000a0: 6911 36bd fbbe 313d 605d 99bd 055e df3d
000000b0: dd5e fb3c 252a 8f3d 1729 8a3b 1d49 893b
000000c0: 6618 db3c 0161 e73d 34d6 b4bd a02a 16bd
000000d0: 99b6 05bd c098 9b3d ecd5 43bd a89c 0a3e
000000e0: ed09 893c 3607 96bd 1f8f 54bd f35e 91bc
000000f0: e461 883d 97a7 3b3e c4ea 483c 37df 09be
00000100: f6da 82bd c760 a6bb 4f9e bc3c 20e8 51bd
00000110: 067e dabd 56eb 35bd 1c6a 18be b216 8cbd
00000120: e117 00be 7d77 1abe 2b19 893d bf6c 2dbd
00000130: 482e 1c3e 8e58 4abd b269 92bb fbfc dfbc
00000140: 51be 50bd 7217 88bd bebd 193e 5790 993c
00000150: 6f8e 82bd 545d eb3d f047 36bc 3eaa 493d
00000160: 7a30 25bd 5b0a 0b3e ad3e d93c b2b2 6abb
00000170: b733 18bc 63f4 a83c c0e0 4c3d 246f 69be
00000180: 16a4 1bbe 8b9a b0bc 5cd0 1ebd baa9 05be
00000190: 0f30 143b 337b 41be fa1e d3bc 71d2 acbb
000001a0: fc35 273e b630 143e 0918 e83d 7ebd d6bc
000001b0: bacf 5d3d 9385 22bd fdbf ab3d a823 ef3c
000001c0: 9c36 2b3d 97d7 1a3e c857 853d 05de a3ba
000001d0: 3066 fe3d 2bb1 8cbd 0e76 afbb 1ac3 fd3d
000001e0: c717 a6bd 9d4c 04be 9dc6 02bd 8530 f3bc
000001f0: d602 e73d 2e6e ac3b a918 863d 960c 813e
00000200: fb83 113c c592 91bd 6f16 033e 95e6 9dbe
00000210: 1813 02bc c1ed 15bd fc43 03bb 3954 303e
00000220: 9ba9 6f3d 168c 703c 3752 d1bb 076e 81bd
00000230: 4a50 8a3d 3898 48bd c1f3 003d a782 08be
00000240: 6f3a 82bd 7ab7 ad39 c143 e83a 8c1a 013e
00000250: feb2 95bc bcdc a93d b26e 783d 2445 a83c
00000260: 5c82 403e cbb7 8d3d 455a 63bd 3031 6e3c
00000270: a923 de3c 3f66 75bd e884 c43d e0d9 a7bd
00000280: 1351 033e a402 7abd 8bc6 abbc aa94 d43d
00000290: b159 073c 6b23 09be 155a ae3a c1e9 71bb
000002a0: ea4c acbc eb99 803c 723c 15bd 28cd 3b3d
000002b0: 2439 223e 3f98 4d3b 5712 1f3b 8168 a03d
000002c0: 9a2a 5a3e bddf 6c3d efad 2abd 9581 91be
000002d0: d9a7 42bd 0e07 a3bc 8482 413e d59f 98bd
000002e0: f6d9 c5bd c6de 873c 6564 38bd b788 0ebc
000002f0: f423 7ebd 8b56 813d fc8b de3c ad2c bf3c
00000300: c326 673e d808 0dbc 3f5f f53c 903e 73bd
00000310: 5478 b43c 7877 a1bd 4763 923d f3e5 953c
00000320: 0bc3 7fbd 9990 1a3d ef1a a2bd 8b75 b6bd
00000330: 9606 013d 5f6c 05be f315 36bd 941e 4bbd
00000340: cd58 8fbd fbe7 3cbc 7fae 2ebd e03d f0bd
00000350: cf55 78bd 8dce b0bd a01f 7bbd 776a d83b
00000360: 789e 3fbd eec3 f23c 3960 613c b4eb 0e3e
00000370: 2074 213e e4be f13c fdc5 32bd 5476 473d
00000380: 5e14 cebd fe50 d2bc 69c7 9cbc ea87 febc
00000390: 5dec 37bd a8b7 60bc 8a19 d93d 9afd 43bc
000003a0: 90b8 1f3d efb6 263d e14d 80bd 2592 a5bd
000003b0: 3ba9 3fbd 5a40 473d 50e7 8a3c aeea 0e3d
000003c0: ce6a 67bd a642 f43c ad54 2f3d 3757 7f3d
000003d0: c5c2 1ebd d32d 13be 3d45 bd3c b304 4e3e
000003e0: d4f7 26bd cb1c 85be c301 28bc ea81 8f3d
000003f0: bbfb cb3b 294c 9abd 3242 9c3d a841 2dbc
0.15474308 0.028337913 0.055727508 0.0002845345 -0.07136243 -0.2204416 -0.08966676 0.0047750142
0.03271131 0.03393844 -0.03376536 0.18404199 0.14103957 -0.060337577 0.0057920576 0.03291059
-0.014739287 0.0952825 0.14569952 -0.012563415 -0.01910168 -0.06502275 0.07730784 -0.025365459
-0.040829517 0.005020534 0.15990788 0.035339344 0.02527179 0.15138412 0.03094287 -0.051733423
-0.010624091 0.12369739 -0.024930239 -0.019831711 -0.014825395 0.030511035 -0.04694594 -0.036779717
-0.044450197 0.043395024 -0.07488513 0.10906605 0.030684883 0.0699046 0.004216324 0.004189624
0.026745033 0.11297799 -0.088299185 -0.036661744 -0.03264484 0.07597494 -0.047811434 0.13536322
0.016728366 -0.07325594 -0.051894303 -0.01774547 0.06659296 0.18325649 0.012263004 -0.13464056
-0.0638942 -0.0050774547 0.023024706 -0.051246762 -0.10668568 -0.044413887 -0.14884228 -0.06840266
-0.12509109 -0.15084644 0.066942535 -0.042340036 0.1525203 -0.04940086 -0.0044681663 -0.02734231
-0.05096275 -0.06645097 0.15013787 0.018745584 -0.06374823 0.1149241 -0.01112555 0.04923462
-0.040329434 0.13578169 0.026519144 -0.0035812077 -0.0092896735 0.020624345 0.050019026 -0.22796303
-0.15199313 -0.021558067 -0.038772926 -0.13053027 0.0022611653 -0.18894653 -0.025771607 -0.00527411
0.16329187 0.14471707 0.11332709 -0.026213404 0.05415318 -0.039678168 0.08386228 0.029191807
0.041800126 0.15121303 0.065108836 -0.001250208 0.124218345 -0.068697296 -0.0053546494 0.12390728
-0.08110004 -0.1291985 -0.031927694 -0.029686222 0.11279838 0.005262158 0.06547672 0.25204915
0.008881564 -0.07108072 0.12801526 -0.30839983 -0.007939123 -0.036603693 -0.0020029536 0.17219628
0.058511358 0.014681837 -0.0063879746 -0.06319814 0.06753595 -0.048973292 0.03148246 -0.1333109
-0.063588016 0.00033133832 0.0017720388 0.12607783 -0.018273827 0.08294055 0.060652442 0.020540781
0.18799728 0.06919821 -0.05550601 0.014538094 0.027116613 -0.059911963 0.09595662 -0.08195853
0.12823896 -0.061037675 -0.020968696 0.10379918 0.00826113 -0.13392417 0.0013301993 -0.003691301
-0.02103277 0.015698394 -0.0364346 0.04584995 0.1584211 0.0031371263 0.0024272406 0.078324325
0.21305314 0.05783056 -0.041669782 -0.28419176 -0.047523353 -0.019900825 0.18897444 -0.074523605
-0.096607134 0.016585719 -0.04501762 -0.008699588 -0.062046006 0.06315335 0.02716636 0.023336733
0.2257338 -0.008608066 0.029952643 -0.059385836 0.022030033 -0.07884115 0.07147842 0.018298125
-0.062441867 0.037735555 -0.079152934 -0.08909138 0.03150042 -0.13029622 -0.044454526 -0.04958971
-0.06999359 -0.011529918 -0.04264688 -0.11730552 -0.06062871 -0.086331464 -0.061309457 0.0066044885
-0.046781987 0.029634442 0.013755851 0.13957101 0.15766954 0.029509969 -0.043645848 0.04869683
-0.100624785 -0.025673386 -0.019138055 -0.031070668 -0.044903148 -0.013715662 0.10600574 -0.011962319
0.038994372 0.040701803 -0.06264854 -0.080845155 -0.04679225 0.048645355 0.016956002 0.034891777
-0.05649834 0.029816937 0.042805362 0.062339034 -0.038759965 -0.1437295 0.023104304 0.2011898
-0.04076369 -0.2599853 -0.010254326 0.07007201 0.006225077 -0.07534058 0.07629813 -0.010574736

weight f4 [300]
00000000: 58e7 833f 83a0 753f e162 773f 1a73 863f
00000010: d097 823f f7bd 4d3f 6df4 4d3f 7a6f 8d3f
00000020: ffd6 813f 0db4 743f c9bf 7d3f c246 7b3f
00000030: b3ce 7c3f 906b 823f 129d 7b3f 0098 7f3f
00000040: f7b2 823f cd0e 743f f419 743f 58eb 763f
00000050: 354f 733f dd00 503f cced 663f 42ef 793f
00000060: 54ff 8c3f 2192 783f f39b 663f 6ac5 6a3f
00000070: d0b8 7c3f 38b5 763f c2a9 6a3f c301 7c3f
00000080: 016a 703f 7f4c 763f c6b8 723f 5ee9 6f3f
00000090: e34b 853f ece4 7d3f a8f5 5c3f a29f 723f
000000a0: 1008 8f3f c51f 813f df85 723f 8b4b 673f
000000b0: 7b63 753f bbd5 763f 14c1 813f 6372 733f
000000c0: 0ef7 723f 1739 6e3f dd2e 703f 28cc 863f
000000d0: b625 623f 2a1a 733f e713 7e3f 3ec1 683f
000000e0: 16fa 6f3f bce6 723f 95ce 823f 261c 703f
000000f0: 1428 683f 68e4 773f d30b 843f 0eda 743f
00000100: 8974 673f 6c4d 613f 347f 7b3f cfb3 863f
00000110: d88f 743f af71 773f 666d 673f e51e 713f
00000120: a461 d43e 3972 5f3f 9428 843f 40ba 483f
00000130: 17fc 843f c3cd 803f e44a 7e3f 825e 793f
00000140: 8e01 643f 0327 7d3f 4e67 5c3f 2019 6e3f
00000150: 2676 6f3f d55f 763f 757e 783f dd59 5c3f
00000160: 4c66 7f3f a886 753f 9fd0 723f 390f 6d3f
00000170: 84a8 803f bd0d 793f 1ec6 823f 82de 4e3f
00000180: 2aef 513f 3dd9 723f 831c 643f 7e01 5f3f
00000190: 69e4 783f 59eb 593f 3653 843f 7c57 743f
000001a0: 43ee 7a3f b5ff 6e3f ede0 643f 3e68 7e3f
000001b0: 2ddf 7d3f 344a 7d3f 832b 853f b3f0 733f
000001c0: e1c1 6c3f 1732 7d3f 6d86 753f cbcc 833f
000001d0: a969 713f ae77 303f bb21 8a3f 6c02 793f
000001e0: 07dc 7b3f 7ab3 043f 7a68 693f e035 643f
000001f0: 2cf3 603f 9dd8 743f 99ff 693f f185 7d3f
00000200: 6f84 813f c321 723f e515 723f b687 3c3f
00000210: 1ef1 2b3f 9fb8 683f 49ad 7c3f 9554 773f
00000220: f25a 883f 1bd6 813f 73d3 863f 06f9 713f
00000230: 2263 703f 529d 783f b2bd 6d3f 0878 633f
00000240: 5b33 573f 41f6 653f f772 813f 557d 743f
00000250: 74bb 7b3f 9ef3 773f d031 753f 0d07 7b3f
00000260: 12dc 883f 7d39 893f a62c 823f e4cb 763f
00000270: 2326 713f 478a 7c3f 9845 723f ef87 783f
00000280: 9386 773f 2cec 7e3f 01a4 783f 4ea9 853f
00000290: 2798 7a3f da6a ee3e 9335 7c3f f59a 863f
000002a0: a03f 6d3f 5c56 783f b7de 763f da11 833f
000002b0: d402 7f3f 5b83 7b3f bbaa 743f 9ee1 7a3f
000002c0: f236 783f 2aa5 823f 9c76 713f d6ee 273f
000002d0: 3f21 713f efbe 763f 8072 7d3f 9a9e 6f3f
000002e0: 5ed7 703f a7ab 6e3f 0301 803f 91c9 7f3f
000002f0: c866 7c3f 0c00 703f 6d73 6d3f d84a 7a3f
00000300: 14fd 883f 6b58 763f 802c 4b3f 665d 683f
00000310: 1771 7b3f 32f0 713f b513 713f 9c6e 7d3f
00000320: d023 723f 2c3f 773f 6041 633f cda1 6a3f
00000330: 6b7d 793f e296 6b3f 0f74 693f d5a0 783f
00000340: 0729 7e3f aa91 613f ea1d 793f d0d4 603f
00000350: a804 833f 9301 753f d1e3 733f 36db 853f
00000360: 2125 733f cc77 803f 2404 803f 6a9a 7e3f
00000370: 2938 7e3f d0cb 733f abab 723f 771e 713f
00000380: 3e50 733f e637 6b3f d66a 633f a1f1 8d3f
00000390: 8eaf 803f 4148 723f a820 803f 3671 733f
000003a0: fab8 753f cf81 863f 5b4e 483f 92cb 803f
000003b0: 3992 7a3f 27d9 763f 90c0 7f3f 8512 693f
000003c0: 3755 7b3f c5d0 773f 4f03 6b3f 5523 753f
000003d0: 7a9e 7c3f acd9 583f 8659 623f de10 833f
000003e0: bfe7 743f 31df 4c3f 7038 873f 1e0e 7e3f
000003f0: da7b 793f 32b4 5f3f 2c9e 753f de45 753f
1.0304976 0.95948046 0.9663525 1.0503876 1.020258 0.8036799 0.8045109 1.1049645
1.0143737 0.95587236 0.99120766 0.9815484 0.987529 1.0189075 0.98286545 0.9984131
1.0210866 0.95335084 0.953521 0.96452856 0.95042735 0.8125132 0.902066 0.97630703
1.101542 0.97097975 0.9008171 0.9170748 0.987195 0.9637027 0.9166528 0.9844019
0.9391175 0.96210474 0.9481319 0.93715465 1.0413784 0.9917743 0.8631234 0.9477483
1.1174335 1.008782 0.9473552 0.90349644 0.9585492 0.96419877 1.0137048 0.95096415
0.94908226 0.9305586 0.9382151 1.0531054 0.8833879 0.949618 0.9924912 0.90919864
0.93740976 0.9488332 1.0219294 0.9379295 0.90686154 0.96832895 1.0316108 0.95645225
0.90412194 0.8800876 0.9824097 1.0523623 0.9553199 0.9665784 0.90401304 0.94187766
0.41480744 0.87283665 1.0324883 0.78409195 1.0389432 1.0062793 0.99333024 0.9740983
0.8906487 0.9888765 0.8609513 0.9300709 0.93539655 0.9623998 0.9706796 0.8607462
0.9976547 0.95908594 0.9484958 0.9260135 1.0051427 0.9728659 1.021671 0.8080827
0.8200556 0.9486273 0.89106005 0.8711165 0.97223526 0.8512474 1.0337894 0.9544599
0.9801981 0.9335893 0.8940571 0.9937781 0.99168664 0.9894135 1.0403904 0.9528915
0.92483336 0.98904556 0.9590824 1.0296873 0.9430185 0.68932617 1.0791544 0.9726932
0.9838261 0.5183636 0.91175044 0.89144707 0.8787105 0.95643026 0.91405636 0.99032503
1.011854 0.94582766 0.9456466 0.7364458 0.6716479 0.9090671 0.9870191 0.96613437
1.0652754 1.0143465 1.0533279 0.94520605 0.93901265 0.9711505 0.9286758 0.8885503
0.8406274 0.8982888 1.011321 0.9550374 0.98332906 0.96856105 0.9577913 0.98057634
1.069216 1.0720669 1.0169876 0.9640486 0.94198817 0.98648494 0.9463744 0.9708242
0.9668972 0.9957912 0.9712525 1.0442293 0.97888416 0.46565896 0.9851925 1.0516039
0.9267521 0.97006774 0.96433586 1.0239823 0.9961369 0.9824731 0.95573014 0.98000515
0.9695884 1.0206654 0.9432161 0.6559881 0.94191355 0.9638509 0.9900284 0.9360138
0.94078624 0.9323067 1.0000309 0.9991694 0.9859433 0.9375007 0.9275425 0.9777045
1.0702233 0.96228665 0.79364777 0.90767515 0.98219436 0.94507134 0.94170696 0.989969
0.94585896 0.9658077 0.8877163 0.9165314 0.97457 0.92027104 0.91192716 0.9712041
0.9928135 0.8811289 0.9731127 0.87824726 1.0235796 0.9570553 0.95269495 1.0457523
0.9497853 1.0036559 1.0001264 0.9945437 0.99304444 0.9523287 0.94793195 0.9418711
0.95044315 0.9188217 0.88834894 1.1089364 1.0053575 0.946415 1.0009966 0.9509462
0.95985377 1.0508364 0.7824456 1.0062125 0.9787937 0.964251 0.999032 0.91043884
0.981769 0.9680293 0.91801924 0.9575704 0.98679316 0.8470714 0.8841785 1.0239522
0.95666116 0.80028063 1.0564098 0.9924029 0.9745461 0.8738433 0.95944476 0.95809734

bias f4 [300]
00000000: 89c3 67bd d34f 4b3d 8a8d e3bc 6989 533e
00000010: 2d52 7f3e 51c9 00bc 9dc9 c6bc 6c0b aa3d
00000020: e051 da3d c35b 483e 481f 913c f5fb c8bd
00000030: 8a5e 0d3e 35ca 063e cbd7 a43d 6aa8 023d
00000040: 4189 2a3e 7221 ff3c 1be6 c8ba d918 f43d
00000050: 4367 c1bd 6a20 a33d b635 98bd aca3 6e3e
00000060: 064f 5e3e 5358 9d3d 0d8b 0a3d b873 8a3d
00000070: 61d4 823d 26dd 33bc 9456 1e3e 0f22 c13d
00000080: 770f a43d 4567 6e3c 7213 543d 590c 0dbd
00000090: 7c71 103e 531c f33d 759a 8b3e 1ce1 1b3e
000000a0: b2a9 d13d 9386 ad3d 94c8 0b3e 16f7 0a3e
000000b0: 25f4 593d e4a6 ad3d c688 7abd f4e8 b33d
000000c0: 3ba6 97bd ff31 b6bd df98 f73d f9f0 3ebe
000000d0: fea8 a93d 4ab8 793d c5e7 ff3d 4c4a a63d
000000e0: d2a0 853d 40f3 913d 6488 c33d 9eba 2e3e
000000f0: 8a32 0abd 5f45 90bc b757 873d ed52 9ebb
00000100: 7c1c 243d 862e 173e 5734 0b3e ee45 d83d
00000110: ccec 293c 0f4b 023e 2e9b aabc 1b67 463e
00000120: bf1c 6b3d adfc 403b e794 db3d f079 a9bc
00000130: d5ca c13d d32e f63d 769d 633d 996a a83d
00000140: 1e0d a33d 5acf 0b3e fed9 063e 8b85 a63c
00000150: e257 d43d ba52 3c3e f844 9ebd 3465 68bd
00000160: 269b 4c3d 0589 08be a5d6 333e ba3e 013e
00000170: d6bb a73d 68b0 413d 9c41 263e 14cb 843c
00000180: 70a9 45bd 3335 8a3d 65ec 0f3e 2d54 013a
00000190: 93e0 743d 90d2 0a3a bf2a 3c3e 11b0 e03d
000001a0: 5920 8f3b abcc 67bd d4eb aa3d d4f9 f73d
000001b0: c0a9 263e 9f7f 863d 0f4b 5d3d ecf3 db3c
000001c0: 9e51 503d 87c0 17bd 5147 38bd e28e 413e
000001d0: db65 f2bc 89fa ea3d 3f09 5d3e 56f4 4cbd
000001e0: ba47 a83d f8bf 823c 1177 b13d aa17 983d
000001f0: 4c2e adbd 6300 f1bb 3571 8a3d 9972 ce3c
00000200: d7a7 1d3e 4a32 813d c98e c13d c18f a83a
00000210: 7eff f93b 69a4 463e 5e7e acbd 4b1c d23d
00000220: 90e6 643d 4910 dd3d bd03 313e 057c e539
00000230: 6322 073d fb5f d5bd a40a f03d a669 5fbc
00000240: e075 513e f07c 783d a9fe 1d3d e0a3 e4bc
00000250: 35df 003e 5334 9b3d 8165 973d f0ef 823d
00000260: b206 d03d bd13 82bc b9ea 59bd 849f 2e3e
00000270: dbc9 903d 4625 df3d d1f7 873c 1899 8d3d
00000280: 32ee 183e e88e eb3d 68a3 413d 1c03 2e3e
00000290: 11d5 693d 6346 523c 2042 a6bd 86fe 863d
000002a0: 0b35 be3d e97e 2d3e 9d88 87bd dc6c 193e
000002b0: dfca ae3d 1f3d 353b 9dde dc3d 3048 063e
000002c0: 3262 ab3d 30e1 203d 53b6 f53c caef b1bc
000002d0: 68cf 093e cb4c a03d bf3e 08bd 1535 283e
000002e0: 94c5 d33d 9b1d c53d eb07 2b3d 715f d73d
000002f0: 49b6 933d 7303 30bd 0ba5 193e 4d00 193e
00000300: cb03 5cbd 71d6 d23d 7424 75bd f578 c43d
00000310: 8cf8 233d e645 a5bc 3d4a a2bc 58d8 dc3d
00000320: 52be 6a3d 43e1 e03d 8d30 eb3d 1c7f 683e
00000330: a511 2e3e 5db6 933b 24c7 5abd 9808 d1bc
00000340: 93d9 3eba 0834 a93d 78dd 163e bb72 47bc
00000350: f738 ac3d 9f08 e53d d6fd eebd c45b 3f3e
00000360: cc85 95bb 8e55 813d cce4 963c 2858 9f3d
00000370: 7d8f bf3c c4aa a13d a715 bc3b 1b33 8f3d
00000380: 16c7 62bb 61f6 ee3c ab46 1a3e 0215 0a3e
00000390: 25ae 69bd 346c 343e 0536 3bbd 5be4 833d
000003a0: fa44 493c 581a a93d bffd 8fbc 862e 093e
000003b0: 2f99 1f3e 1fff 903d 650d 803d 99dc c43d
000003c0: 025c 153e 9d90 4e3d 4f9f ec3d 72f9 043e
000003d0: 7bba fc3d 4ff8 c8bb 518d b13d 9892 4fbd
000003e0: 7576 b73d 7230 693b 61a3 903d c948 653e
000003f0: e1c2 95bc 2886 033e 5f5a d2bc f769 9c3d
-0.05658296 0.049636673 -0.027777452 0.20657887 0.24933691 -0.007860498 -0.024266059 0.0830296
0.10660148 0.19566254 0.017715111 -0.09813682 0.13805595 0.13163073 0.08048972 0.031898893
0.1665392 0.031143878 -0.0015327366 0.11918802 -0.09443524 0.07965167 -0.074321195 0.23304623
0.21709833 0.07682862 0.033824015 0.06760353 0.06388164 -0.010978019 0.15462714 0.09430324
0.08010762 0.014550989 0.051776357 -0.034435604 0.14105791 0.11870637 0.2726628 0.15222591
0.10237445 0.084729336 0.13650733 0.13570818 0.05321135 0.084790975 -0.061165594 0.08784667
-0.07404753 -0.08896255 0.12089705 -0.18646611 0.08284186 0.060966767 0.124953784 0.0811964
0.06524815 0.071264744 0.09547499 0.17063376 -0.033739604 -0.017611204 0.06608527 -0.004831663
0.040066227 0.14763841 0.13594185 0.10560213 0.010371398 0.12723945 -0.020825949 0.19375269
0.05740046 0.0029447482 0.1072176 -0.020688027 0.09462515 0.1202065 0.05557009 0.08223457
0.07961486 0.13653317 0.13169095 0.02032735 0.10368325 0.18390933 -0.077279985 -0.05673714
0.04995265 -0.13333519 0.17562349 0.12621585 0.08190124 0.047287375 0.16235965 0.016210116
-0.04825729 0.06748428 0.14055021 0.00049335026 0.059784483 0.00052956585 0.18375681 0.10971082
0.00436787 -0.05659167 0.08345762 0.12108198 0.16275692 0.065673105 0.05402666 0.02684971
0.050859086 -0.037048843 -0.044989888 0.18902162 -0.029589584 0.11473567 0.21585558 -0.050037704
0.08216806 0.015960678 0.08665288 0.074263886 -0.08456096 -0.0073547824 0.06759874 0.025201129
0.15396057 0.0630842 0.09451062 0.0012860225 0.007629334 0.19398655 -0.0842254 0.10259303
0.055883944 0.10794122 0.17286582 0.00043770685 0.032991778 -0.104186974 0.117207795 -0.013636028
0.20455122 0.060666025 0.03857294 -0.027910173 0.12585147 0.075783394 0.07392407 0.06393421
0.10157527 -0.015878553 -0.053202365 0.17053038 0.07069751 0.10895781 0.01659766 0.06913966
0.14934614 0.115018666 0.047274977 0.16993374 0.05708796 0.012834164 -0.08118081 0.06591515
0.09287461 0.16942944 -0.06617854 0.14982933 0.08534788 0.002765484 0.107846476 0.13113475
0.08368339 0.039277256 0.029994166 -0.021720786 0.13458025 0.07827147 -0.033262964 0.16426499
0.103404194 0.096247874 0.041755598 0.10516251 0.072125025 -0.04297204 0.15004365 0.14941521
-0.053714555 0.10294808 -0.059849218 0.09593383 0.040031955 -0.020174932 -0.01981079 0.10783452
0.05731041 0.10980465 0.1148387 0.22704738 0.16998918 0.0045078234 -0.05341257 -0.025516793
-0.0007280346 0.08261877 0.14732921 -0.01217335 0.08409303 0.11183285 -0.11669509 0.1868735
-0.004563069 0.063151464 0.018419646 0.07780486 0.02338385 0.07893899 0.005739886 0.069921695
-0.0034603528 0.029170217 0.1506602 0.13484576 -0.057050843 0.17619401 -0.045705814 0.0644004
0.012284512 0.08256978 -0.01757705 0.13396654 0.15585779 0.070799105 0.06252555 0.09612388
0.1458588 0.050430883 0.11553823 0.12985781 0.12340256 -0.0061331163 0.08669532 -0.050676912
0.08958141 0.0035581854 0.07062412 0.22391047 -0.018281402 0.12844145 -0.025677858 0.07637399
